fcnn.pth (torch, 41585 bytes, 7 tensors)

conv1.weight f4 [16, 1, 3, 3]
-0.24768911 0.93404007 -0.027118826 -0.8697255 0.35932055 0.24129455 -0.3686888 -0.07738399
-0.08735475 -0.054362725 0.08723901 -0.092337206 -0.17193022 0.5267761 -0.20865989 0.0017080237
0.76492333 -0.43272448 -0.6939229 -0.048280656 -1.0647281 0.090796396 -0.3652811 0.55193144
0.66203624 0.16339682 0.84642893 -0.7249939 0.0023895218 0.8219957 -0.2815238 -0.23409978
0.27009165 -0.3134604 0.3230876 -0.4887915 0.73210365 0.34874585 0.27915165 -0.9175332
-0.5547177 -0.37825266 0.337228 0.57170093 -0.50414133 -0.20681003 -0.1737448 -0.074265555
0.004445118 0.18560117 0.038530044 -0.13719924 -0.0033972075 0.2197411 0.5463461 -0.48870486
-0.50498587 0.5205685 -0.028102672 0.09299711 -0.11541796 -0.1611885 0.2020414 -0.570244
0.013187791 0.38208875 0.14333364 0.11142209 -0.828412 0.5214161 0.08324798 0.50792867
0.8192997 0.4093536 -0.3080227 0.22613932 -0.2789586 -0.87878186 -0.12006576 0.38908833
-0.22832528 1.3621808 0.38806137 0.5875152 -0.11822238 -0.11947219 0.22935078 -0.17265868
0.6499101 -0.26637882 0.17861703 -0.17587991 -0.32998714 0.48814565 0.57663095 -0.41975725
-0.81676894 -0.35929677 -0.29777107 -0.48061696 0.06670073 -0.21240333 -0.323564 0.9645027
-0.58155495 -0.02543066 -0.16128911 -0.17660728 -0.9931524 -0.03438129 -0.24705334 -0.691212
0.6036105 -0.33825615 -0.43704295 -0.24480908 0.035957485 0.089342564 -0.4891553 0.20452377
-0.15418309 -0.14115278 -0.23398669 0.26491445 -0.5244684 -0.5008324 0.6831421 0.045852747
0.1785805 -0.6691422 -0.11908339 -0.75404906 -0.74164706 -0.038525004 -0.12934043 0.10046029
0.085652545 0.24633786 -0.65474993 -0.44720718 0.28151545 0.46048078 -0.5817313 -0.51141584
00000000: 37a2 7dbe 401d 6f3f 4d28 debc 55a6 5ebf
00000010: ddf8 b73e eb15 773e c7c4 bcbe 7f7b 9ebd
00000020: 0ce7 b2bd 73ab 5ebd 5eaa b23d 4a1b bdbd
00000030: 7a0e 30be ccda 063f f0aa 55be c4df df3a
00000040: 04d2 433f 108e ddbe eea4 31bf f0c1 45bd
00000050: 0349 88bf 76f3 b93d 2006 bbbe 614b 0d3f
00000060: 357b 293f 7f51 273e 91af 583f 3399 39bf
00000070: 8699 1c3b 4f6e 523f e323 90be dab7 6fbe
00000080: 7449 8a3e e27d a0be bd6b a53e e142 fabe
00000090: 256b 3b3f d18e b23e f7ec 8e3e 75e3 6abf
000000a0: fb01 0ebf 55aa c1be 26a9 ac3e fe5a 123f
000000b0: 680f 01bf 02c6 53be 28ea 31be 8a18 98bd
000000c0: 5aa8 913b 3c0e 3e3e aed1 1d3d f57d 0cbe
000000d0: afa3 5ebb d003 613e 57dd 0b3f 8637 fabe
000000e0: c146 01bf fa43 053f 9337 e6bc 4575 be3d
000000f0: 4060 ecbd 990e 25be f1e3 4e3e 83fb 11bf
00000100: 9b11 583c 23a1 c33e 0ec6 123e 4431 e43d
00000110: cf12 54bf 877b 053f eb7d aa3d 9d07 023f
00000120: a0bd 513f cc96 d13e 27b5 9dbe 1191 673e
00000130: a9d3 8ebe d9f7 60bf 0ae5 f5bd 9636 c73e
00000140: 1ace 69be f15b ae3f fbaf c63e 6567 163f
00000150: 931e f2bd d6ad f4bd eeda 6a3e 70cd 30be
00000160: 8260 263f ce62 88be 62e7 363e dd19 34be
00000170: 13f4 a8be 3aee f93e 169e 133f 6cea d6be
00000180: c517 51bf bff5 b7be 7375 98be 6d13 f6be
00000190: 649a 883d 4280 59be 2eaa a5be a6e9 763f
000001a0: c9e0 14bf f653 d0bc f928 25be 8ad8 34be
000001b0: 3c3f 7ebf 65d3 0cbd 8dfb 7cbe 45f3 30bf
000001c0: 3886 1a3f e92f adbe 18c4 dfbe 3baf 7abe
000001d0: 2848 133d 3cf9 b63d 9072 fabe ae6e 513e
000001e0: 2ce2 1dbe 5b8a 10be 359a 6fbe dea2 873e
000001f0: 9043 06bf 8d36 00bf 67e2 2e3f 17d0 3b3d
00000200: cedd 363e e74c 2bbf fee1 f3bd 5c09 41bf
00000210: 95dc 3dbf 65cc 1dbd d171 04be 20be cd3d
00000220: 9a6a af3d fe3f 7c3e b19d 27bf 57f8 e4be
00000230: cb22 903e 23c4 eb3e 58ec 14bf 26ec 02bf

conv1.bias f4 [16]
-0.032979887 0.00020868909 -0.070870124 0.27161428 -0.0018687741 -0.3234523 -0.08379397 0.015238401
-0.1099984 -0.2635799 0.297039 0.02444648 -0.22897351 0.3855497 -0.13913845 0.40794107
00000000: eb15 07bd 8dd3 5a39 5b24 91bd 0711 8b3e
00000010: a7f1 f4ba 8a9b a5be 2c9c abbd 7caa 793c
00000020: d746 e1bd f2f3 86be 7f15 983e fc43 c83c
00000030: 0878 6abe c566 c53e 4f7a 0ebe a7dd d03e

conv2.weight f4 [32, 16, 3, 3]
0.009331962 0.1294766 -0.13551682 -0.09858699 -0.13857058 -0.17400809 -0.0313316 -0.17359328
0.023648757 -0.00635211 0.042829942 -0.23129235 0.14988536 0.16939253 0.08818777 -0.046667416
-0.099745065 -0.05443666 -0.17450231 -0.07580738 -0.025768876 -0.107355714 -0.32687205 -0.0477606
-0.013982101 -0.15299325 0.022522993 -0.07221285 0.03991696 -0.012297303 -0.034651883 -0.048533298
-0.09389449 0.1433855 0.00860409 -0.062170096 0.04326596 -0.017656224 0.08364185 0.10077123
-0.004511113 -0.018361185 -0.10179 -0.203155 -0.2433041 -0.07184712 -0.082394674 -0.11819199
0.021540713 -0.0729549 0.037452273 -0.036166336 0.0015659659 0.32376698 0.09933966 0.16938278
0.16070764 -0.24532527 -0.106276646 0.0061646467 -0.1360995 -0.06598394 -0.11595383 0.12009235
0.10347623 0.13809942 0.016559478 -0.0550262 -0.03173361 -0.21301277 -0.01256752 -0.18458493
-0.134846 -0.2461882 -0.083156735 -0.04137306 0.11893879 0.015067774 0.28089505 -0.067541756
0.103550844 -0.050498676 -0.0759917 0.2102138 0.0055710687 -0.0034270578 0.009994327 0.08057945
-0.029009202 0.04087633 0.0737276 -0.1408757 0.15754159 -0.2946145 -0.24258587 -0.0077311387
0.1488852 0.14706892 0.11106112 -0.023829479 0.012179062 0.07284136 -0.017159363 0.01088813
0.029478667 -0.075664975 0.004097394 0.18461587 0.07346584 -0.011779795 -0.086263835 0.094257675
0.20651399 -0.25344646 -0.26300454 -0.08234759 0.15809348 0.04892916 0.037837885 0.070210844
-0.018901942 0.11997537 0.052926827 -0.005490715 0.15747064 0.18671334 -0.1082821 -0.025168546
-0.04992236 -0.08506039 -0.045422323 -0.043488007 -0.06946084 0.029862516 0.15952156 0.024945661
0.020694174 -0.18432033 -0.052692264 0.11049505 -0.18175173 0.07635895 -0.023441989 -0.030892722
-0.20324564 0.02038305 0.032172814 0.0028959324 0.1500576 0.02210402 0.06641496 -0.042869374
0.25984406 -0.11662083 -0.25570554 0.07703045 0.12441144 0.02073685 -0.15352671 0.035976578
0.13940538 -0.137575 -0.0025305173 0.06778997 -0.04440097 0.059230607 0.034804247 0.028994791
0.016058773 0.08907844 -0.06809754 0.0349868 -0.18651104 0.122100815 -0.0031777082 -0.056786805
0.12579688 -0.28137004 -0.10173781 0.33931136 -0.100967355 -0.15643908 -0.18546735 0.18649551
-0.01580398 -0.07697881 -0.07765049 -0.23003276 0.020822536 -0.018073596 0.13959904 0.1604379
-0.018825144 -0.1433813 -0.049643505 0.057815637 -0.020391427 -0.28284353 0.08335984 -0.2184109
0.17662567 0.059086252 -0.014890279 0.01922425 0.23034786 0.010406188 0.18115565 0.12604967
0.1600937 0.10633434 0.1065336 -0.07928048 -0.038218502 0.01963437 0.03223517 0.10831321
0.06142335 -0.012222978 0.18646944 0.05722213 0.18136422 -0.00979774 0.06220283 0.055561982
-0.08617291 0.0520529 0.2820079 0.14970466 0.15192913 0.1150257 -0.0010728084 -0.08849359
0.028946271 0.075298026 -0.20411928 -0.14747371 -0.13487908 0.03336874 0.0050238157 0.16109751
-0.13033336 -0.15218064 -0.1716858 0.084885724 -0.13173823 -0.046514943 -0.062475905 0.059422642
0.04981642 0.062553145 -0.08785186 -0.06168492 -0.09336609 0.0016982671 -0.0053023268 0.08401526
00000000: 16e5 183c 8495 043e ecc4 0abe fae7 c9bd
00000010: 72e5 0dbe 2d2f 32be 9055 00bd 70c2 31be
00000020: 0abb c13c 5c25 d0bb 736e 2f3d e7d7 6cbe
00000030: 8c7b 193e 3c75 2d3e ca9b b43d 5526 3fbd
00000040: 2447 ccbd faf8 5ebd bcb0 32be e640 9bbd
00000050: 4019 d3bc 50dd dbbd c65b a7be 9ea0 43bd
00000060: 2f15 65bc 43aa 1cbe 2482 b83c 55e4 93bd
00000070: f77f 233d a17a 49bc 22ef 0dbd daca 46bd
00000080: c14b c0bd a6d3 123e 2bf8 0c3c 12a6 7ebd
00000090: a637 313d c9a3 90bc 6b4c ab3d 2661 ce3d
000000a0: f5d1 93bb 326a 96bc 4777 d0bd dd07 50be
000000b0: b624 79be 9524 93bd 8abe a8bd a40e f2bd
000000c0: 2676 b03c 6169 95bd 8e67 193d 2723 14bd
000000d0: 1941 cd3a c9c4 a53e 9772 cb3d ae72 2d3e
000000e0: 8b90 243e 8c36 7bbe 92a7 d9bd ce00 ca3b
000000f0: ab5d 0bbe 9722 87bd 3479 edbd faf2 f53d
00000100: 58eb d33d ef69 0d3e bea7 873c 2763 61bd
00000110: 1afb 01bd 0520 5abe 00e8 4dbc d503 3dbe
00000120: 1215 0abe c218 7cbe 144e aabd cc76 29bd
00000130: 2e96 f33d d3de 763c 7ad1 8f3e 5553 8abd
00000140: 7712 d43d b3d7 4ebd 89a1 9bbd 4942 573e
00000150: 838d b63b 7d98 60bb 3fbf 233c d706 a53d
00000160: b5a4 edbc f06d 273d 7ffe 963d b841 10be
00000170: 9552 213e b6d7 96be 6e68 78be 7e55 fdbb
00000180: 5d75 183e 3c99 163e 0374 e33d 0a36 c3bc
00000190: b08a 473c da2d 953d cb91 8cbc 2164 323c
000001a0: 3f7d f13c 3df6 9abd 6f43 863b f10b 3d3e
000001b0: 4275 963d 0b00 41bc 18ab b0bd 2b0a c13d
000001c0: 6778 533e bcc3 81be 88a8 86be daa5 a8bd
000001d0: 42e3 213e f169 483d e6fb 1a3d b4ca 8f3d
000001e0: 3fd8 9abc a6b5 f53d cdc9 583d 75eb b3bb
000001f0: fc3f 213e c831 3f3e 01c3 ddbd 442e cebc
00000200: 637b 4cbd 2434 aebd c20c 3abd 7b20 32bd
00000210: 7c41 8ebd 3ca2 f43c 9f59 233e d85a cc3c
00000220: d486 a93c 78be 3cbe d8d3 57bd 3b4b e23d
00000230: 201d 3abe 1562 9c3d 6a09 c0bc bc12 fdbc
00000240: a01f 50be 5bfa a63c a4c7 033d afc9 3d3b
00000250: b3a8 193e 7d13 b53c 9104 883d cc97 2fbd
00000260: 480a 853e e7d6 eebd d6eb 82be 24c2 9d3d
00000270: 6dcb fe3d 54e0 a93c 1b36 1dbe 2d5c 133d
00000280: 49c0 0e3e 76e0 0cbe 09d7 25bb 78d5 8a3d
00000290: cbdd 35bd cb9b 723d e68e 0e3d 7c86 ed3c
000002a0: b08d 833c c26e b63d b976 8bbd 524e 0f3d
000002b0: c0fc 3ebe fe0f fa3d 1941 50bb 4899 68bd
000002c0: e6d0 003e bc0f 90be ea5b d0bd 38ba ad3e
000002d0: f9c7 cebd 9131 20be 27eb 3dbe aef8 3e3e
000002e0: 5977 81bc 11a7 9dbd 3807 9fbd b58d 6bbe
000002f0: 0694 aa3c 140f 94bc 0df3 0e3e d549 243e
00000300: 3037 9abc 8cd2 12be fd56 4bbd 17d0 6c3d
00000310: ec0b a7bc ded0 90be 90b8 aa3d 1ba7 5fbe
00000320: 5cdd 343e 6d04 723d 5bf6 73bc 2d7c 9d3c
00000330: 4fe0 6b3e b77e 2a3c de80 393e 2a13 013e
00000340: 9aef 233e d2c5 d93d 4a2e da3d ce5d a2bd
00000350: 018b 1cbd 42d8 a03c 0709 043d 51d3 dd3d
00000360: 0d97 7b3d e342 48bc d8f1 3e3e c161 6a3d
00000370: 8bb7 393e b386 20bc 65c8 7e3d f694 633d
00000380: 6c7b b0bd 6c35 553d 5763 903e 2e4c 193e
00000390: 4f93 1b3e 9892 eb3d 7a9d 8cba 213c b5bd
000003a0: bb20 ed3c da35 9a3d a504 51be 5903 17be
000003b0: be1d 0abe a9ad 083d d29e a43b bff6 243e
000003c0: 1c76 05be 3ed5 1bbe 67ce 2fbe 91d8 ad3d
000003d0: 63e6 06be 7486 3ebd bce6 7fbd 2865 733d
000003e0: 4d0c 4c3d dd1b 803d adeb b3bd 54a9 7cbd
000003f0: b836 bfbd 6398 de3a 24bf adbb 3110 ac3d

conv2.bias f4 [32]
-0.0352116 -0.06856607 -0.08949725 -0.07810336 -0.07135063 0.05842907 -0.00041225302 -0.15640298
0.027504317 -0.04254836 -0.18935992 -0.06908375 -0.09740731 0.044633813 -0.13144012 -0.06438701
-0.14220935 -0.009593372 0.031296823 -0.09260263 -0.04607347 0.124050535 -0.065914825 0.04600447
-0.053092398 -0.02967826 -0.032478873 -0.098515734 0.061435785 -0.07295694 0.0095048575 0.029363826
00000000: 0a3a 10bd 5e6c 8cbd 564a b7bd a8f4 9fbd
00000010: 4720 92bd 5253 6f3d aa23 d8b9 1a28 20be
00000020: bc50 e13c 3047 2ebd 91e7 41be c87b 8dbd
00000030: 7c7d c7bd f2d1 363d 3d98 06be 56dd 83bd
00000040: 549f 11be 852d 1dbc 1931 003d 73a6 bdbd
00000050: 89b7 3cbd 350e fe3d 5afe 86bd 2f6f 3c3d
00000060: 6a77 59bd d31f f3bc 9108 05bd 9ec2 c9bd
00000070: 17a4 7b3d 736a 95bd 43ba 1b3c 688c f03c

conv3.weight f4 [16, 32, 3, 3]
-0.06853108 -0.10315458 -0.037196834 -0.029778026 -0.09031025 0.14399382 -0.08012818 -0.060638677
0.13290636 -0.040830266 -0.045539077 -0.08280036 -0.095365606 -0.08049954 0.0034671947 -0.1602208
0.017162794 0.10858599 -0.0756452 -0.06595851 0.060184933 0.03440393 -0.08402521 0.0228247
-0.12470482 0.005283902 0.0038813008 0.030184057 0.00881763 -0.02391696 0.2827181 0.07282325
0.052136026 0.10194054 0.051697366 0.124517255 0.042215317 -0.10310894 -0.03848309 -0.067894034
0.11387397 0.06031698 -0.12636678 0.054819155 -0.08943506 -0.046686757 -0.045606546 -0.06480405
0.11337284 -0.08387684 -0.0029691074 -0.15104654 -0.028473908 0.05919524 -0.023574155 -0.05588617
-0.030975262 -0.10487067 0.10913478 0.047583133 -0.068800665 -0.024235113 -0.16013126 0.12745246
0.02636879 -0.09735873 -0.042083226 0.059648313 0.006329426 -0.015105158 -0.08634911 0.012361041
0.020867523 0.15877561 0.040949184 0.10098043 0.14182983 -0.04819186 0.07046093 -0.066215545
0.12453057 -0.070015036 -0.102659054 0.012748289 0.100198984 -0.031437684 0.06259232 0.06554024
0.034015086 0.118866935 0.0059568784 -0.016488735 0.026747635 0.07931781 -0.06713948 0.1258655
0.032967284 -0.11547543 0.15515058 0.03068564 0.13645348 0.14108814 0.09023015 -0.062294982
0.1022497 -0.021353802 -0.01883891 0.109976515 -0.23995936 -0.06661283 0.10008172 -0.008605168
0.0112079345 0.0039936034 -0.14164902 0.15882398 0.10363197 0.051283237 -0.042897936 -0.13185075
0.051978037 0.0014989224 0.07732316 -0.106143035 0.09870331 0.029055653 -0.083933756 -0.14368042
-0.03592 0.028586093 0.02138218 0.01566322 -0.06226913 -0.12513262 -0.082236096 -0.041176926
0.07537609 -0.08860773 0.13584736 0.049765833 0.09784341 -0.020000486 -0.0323839 -0.033046663
-0.096896745 0.025179215 0.051484756 0.12310272 0.047386575 0.059634686 -0.0017596248 0.08548811
-0.11388795 -0.024081942 -0.027122678 -0.12691297 0.025768017 0.065363504 -0.11630997 -0.09465602
0.008264068 0.0009546853 -0.037253525 0.09118853 0.016269905 -0.16021223 0.0687987 0.024517128
0.108423896 0.009015958 -0.026668036 0.09400652 -0.091768734 -0.06282435 -0.10748454 -0.054600026
0.07420756 -0.115806 0.07856818 -0.00018685195 -0.012341061 -0.014067384 0.041461933 -0.022365464
-0.084229924 0.13895755 -0.08170678 -0.1573106 0.051739804 -0.026433961 0.055920582 0.009090445
-0.03280121 -0.07009162 0.02701872 0.15806602 -0.14328876 -0.03884431 -0.01211433 -0.023552502
0.065503456 0.15391836 0.0725248 0.043493226 -0.08608143 -3.9339528e-05 0.06899862 0.11218683
-0.0061609056 0.06812824 -0.07654256 0.0012483592 -0.050192382 0.028457234 -0.0030220174 -0.14000061
-0.027553994 0.06368726 -0.24733147 -0.01239785 -0.12377763 -0.061512146 0.10283541 0.015893845
0.0072514154 0.012776683 -0.07515195 -0.03264825 0.04328845 -0.026173996 -0.018167816 0.1906461
-0.18451168 -0.1541764 0.07180451 -0.040076494 -0.10706965 -0.011132522 -0.11313465 -0.004753032
0.115592286 0.027704269 0.04090294 -0.019494915 0.2206615 0.016402798 -0.007938905 -0.13043654
0.02128433 -0.028907057 0.03041457 -0.061240118 -0.019396966 0.10449909 -0.077299684 -0.11394106
00000000: 065a 8cbd b542 d3bd b55b 18bd 0cf1 f3bc
00000010: 95f4 b8bd 1e73 133e 3e1a a4bd 4360 78bd
00000020: 9b18 083e a33d 27bd 2f87 3abd 3c93 a9bd
00000030: 0b4f c3bd f1dc a4bd e039 633b ec10 24be
00000040: fd98 8c3c 5562 de3d dfeb 9abd 4115 87bd
00000050: 7a84 763d 23eb 0c3d 6915 acbd defa ba3c
00000060: 3e65 ffbd 9524 ad3b 6c5d 7e3b 8e44 f73c
00000070: d277 103c 80ed c3bc 6dc0 903e 5b24 953d
00000080: 968c 553d 34c6 d03d 9ec0 533d e702 ff3d
00000090: f8e9 2c3d c82a d3bd 72a0 1dbd 070c 8bbd
000000a0: c236 e93d f00e 773d 4b66 01be 0d8a 603d
000000b0: bb29 b7bd 9d3a 3fbd eecd 3abd fcb7 84bd
000000c0: 0530 e83d 9fc7 abbd 5b95 42bb f2ab 1abe
000000d0: 1d42 e9bc b576 723d 961e c1bc e6e8 64bd
000000e0: d5bf fdbc 6fc6 d6bd 0e82 df3d 88e6 423d
000000f0: 5de7 8cbd b788 c6bc 73f9 23be e682 023e
00000100: 5c03 d83c 0464 c7bd 765f 2cbd ca51 743d
00000110: 1367 cf3b a07b 77bc cdd7 b0bd f785 4a3c
00000120: 5ef2 aa3c 1396 223e 55ba 273d d4ce ce3d
00000130: d73b 113e d464 45bd d24d 903d 049c 87bd
00000140: e209 ff3d 0b64 8fbd e93e d2bd 33de 503c
00000150: 2035 cd3d cdc4 00bd 6730 803d f639 863d
00000160: 6753 0b3d 8270 f33d eb31 c33b 6213 87bc
00000170: db1d db3c 6071 a23d 6c80 89bd e3e2 003e
00000180: b408 073d 627e ecbd cbdf 1e3e 7460 fb3c
00000190: 76ba 0b3e 6979 103e 96ca b83d 0629 7fbd
000001a0: 4a68 d13d 2bee aebc 0f54 9abc 5e3b e13d
000001b0: e8b7 75be 4f6c 88bd a5f7 cc3d b1fc 0cbc
000001c0: 7ca1 373c c6dc 823b 710c 11be c1a2 223e
000001d0: 003d d43d 5f0e 523d bfb5 2fbd e203 07be
000001e0: ece6 543d 7d77 c43a 9b5b 9e3d 8561 d9bd
000001f0: f624 ca3d 1f06 ee3c 76e5 abbd f620 13be
00000200: da20 13bd 622d ea3c ae29 af3c 2750 803c
00000210: ea0d 7fbd c422 00be 666b a8bd 23a9 28bd
00000220: c85e 9a3d f877 b5bd 921b 0b3e 42d7 4b3d
00000230: 2062 c83d 0fd8 a3bc fba4 04bd f05b 07bd
00000240: cd71 c6bd a444 ce3c aee1 523d 471d fc3d
00000250: 6d18 423d 8043 743d 36a3 e6ba 6414 af3d
00000260: 163e e9bd 7e47 c5bc 6130 debc 79f5 01be
00000270: 7317 d33c 4ddd 853d ec33 eebd 04db c1bd
00000280: 0366 073c d943 7a3a 2797 18bd 0dc1 ba3d
00000290: 7748 853c ad0e 24be 55e6 8c3d 25d8 c83c
000002a0: 590d de3d abb7 133c ed76 dabc 7e86 c03d
000002b0: 3ff1 bbbd 0eaa 80bd db20 dcbd 47a4 5fbd
000002c0: 22fa 973d b22b edbd 5be8 a03d b0ed 43b9
000002d0: 2932 4abc e37a 66bc fdd3 293d c737 b7bc
000002e0: bd80 acbd e34a 0e3e e255 a7bd 0816 21be
000002f0: 1eed 533d 098c d8bc fb0c 653d 17f0 143c
00000300: 905a 06bd 328c 8fbd 5d56 dd3c 0fdc 213e
00000310: 4aba 12be 361b 1fbd 2f7b 46bc 2df1 c0bc
00000320: ad26 863d c69c 1d3e e287 943d f425 323d
00000330: 764b b0bd 7f00 25b8 264f 8d3d 35c2 e53d
00000340: 6ce1 c9bb d286 8b3d 58c2 9cbd fc9f a33a
00000350: 8796 4dbd 251f e93c 0a0d 46bb 525c 0fbe
00000360: eab8 e1bc 776e 823d 7644 7dbe 5a20 4bbc
00000370: 207f fdbd 29f4 7bbd 5f9b d23d cf33 823c
00000380: 489d ed3b 4b55 513c 44e9 99bd 2cba 05bd
00000390: 3b4f 313d d96a d6bc acd4 94bc bb38 433e
000003a0: a1f0 3cbe 6be0 1dbe 3e0e 933d 4027 24bd
000003b0: 5547 dbbd 2e65 36bc 24b3 e7bd 52bf 9bbb
000003c0: a6bb ec3d 10f4 e23c d789 273d cdb3 9fbc
000003d0: 17f5 613e 295f 863c 2e12 02bc 2891 05be
000003e0: 7a5c ae3c 7ece ecbc fa27 f93c ebd6 7abd
000003f0: 63e6 9ebc 9e03 d63d 4c4f 9ebd ee59 e9bd

conv3.bias f4 [16]
-0.055701155 -0.12719049 -0.053362366 0.020953372 -0.07356333 -0.049000997 -0.055070464 -0.034449317
0.027623393 0.051995806 0.18394738 -0.037513312 -0.005214495 -0.10028285 0.07358454 -0.03839299
00000000: e526 64bd 393e 02be 7f92 5abd 68a6 ab3c
00000010: 5fa8 96bd 45b5 48bd 9191 61bd ba1a 0dbd
00000020: 744a e23c 8ef9 543d b45c 3c3e 8fa7 19bd
00000030: 5bde aabb 1861 cdbd 7eb3 963d f841 1dbd

conv4.weight f4 [1, 16, 5, 5]
-0.057491127 -0.008549535 0.037216276 0.038700756 -0.09857928 -0.085201435 -0.009242595 -0.049065262
-0.0026856281 0.02920762 -0.06334472 0.049661707 0.008474516 0.03283477 0.033571254 0.018055476
-0.054831974 0.067726225 -0.0037341742 0.016698286 -0.06682898 -0.10480623 0.15698157 0.0448475
-0.039646763 -0.049122654 -0.12550497 -0.023213075 0.0941991 -0.066526055 -0.10458471 -0.007462269
-0.0693141 0.034139674 0.045349523 0.0063809026 0.091517344 -0.12724815 -0.012010028 0.003339477
-0.02986144 -0.06934942 0.003271081 -0.116785705 -0.010210244 -0.010360478 -0.07534264 -0.15798837
-0.13060032 -0.14495695 -0.1694364 -0.11151006 -0.14060922 -0.27751154 -0.13786986 -0.064480126
-0.00305064 -0.14365487 -0.12093086 0.04889542 0.07426792 -0.15141787 -0.07511686 0.014286025
-0.06885294 -0.026462486 -0.1113988 -0.10939607 -0.14929427 -0.16447361 -0.050062884 -0.04061715
-0.05028535 -0.11854932 -0.15610734 -0.26081043 -0.24200538 -0.13673542 -0.08936091 -0.14197542
-0.0132715 -0.1266066 -0.22756746 -0.090303384 -0.08852855 -0.049654283 -0.2527426 -0.075417496
-0.23491016 -0.13880393 -0.1725749 -0.090511866 -0.08019433 -0.0007372644 -0.17321117 -0.24964142
-0.14169012 -0.1282821 -0.26786724 -0.2251222 -0.16350202 -0.17618892 -0.060499527 -0.072332226
2.18433e-05 -0.09980878 -0.047475312 -0.012392184 -0.10637961 -0.0014650301 -0.0019051221 -0.15599538
0.031007053 -0.13077874 -0.08708269 -0.13426815 0.036139682 -0.10776454 -0.0006575105 0.0011310023
-0.036006775 -0.076328605 0.027723035 0.009245043 0.025792826 0.15005237 -0.063046 -0.11267356
-0.03725482 -0.06510127 -0.0759629 -0.09340816 0.09446916 -0.14064963 -0.10545637 -0.15566166
-0.07895177 -0.10734431 -0.020806039 0.026410332 -0.04641538 -0.13688001 0.098946236 0.042610995
-0.0942075 -0.09365114 -0.07377229 -0.020765858 -0.11824439 0.0095135 -0.025465876 -0.14705256
0.13917878 -0.09776087 -0.02652925 -0.06167685 0.045725085 0.03950769 -0.06486701 -0.054353494
0.02014842 -0.0035809705 -0.039224453 0.058318824 -0.00885174 -0.032953203 -0.056358088 0.031570096
0.028562915 0.06791606 -0.06774357 -0.013954161 -0.06676197 0.12085415 -0.087174796 -0.12589337
-0.014335626 -0.07251553 -0.12303608 -0.12492279 -0.08082591 0.028528115 -0.095262825 -0.05096076
-0.13738228 -0.14033866 0.08550241 0.059294485 0.019554349 0.0568945 -0.0030762474 -0.009815798
-0.0659513 -0.11530321 -0.16363159 -0.12073583 -0.17339732 -0.018670749 0.0067511 -0.12005701
0.0500747 0.029493121 0.0039061664 0.080305025 0.043911017 -0.015331734 0.09017069 0.08228448
-0.14556032 0.02820398 0.01218166 -0.014336887 -0.050745133 0.032403864 0.03431766 -0.10515503
-0.06513406 0.0020356048 -0.13161117 0.016540565 -0.117563166 0.049041137 -0.054734193 0.007534092
-0.13205251 0.05432072 -0.089499794 -0.019574389 0.010562532 -0.044943128 -0.03912768 -0.11170338
-0.03513087 -0.0017827011 0.018653043 0.04010499 -0.022209866 -0.10432313 -0.08710896 -0.0053839628
0.054085463 -0.23670259 0.024536163 -0.045516483 0.07897984 -0.024571087 -0.15259328 -0.04790675
-0.010453628 -0.020710303 0.15291663 0.13741754 0.06305366 0.06692969 0.041995272 -0.01310503
00000000: d17b 6bbd 5913 0cbc 1870 183d af84 1e3d
00000010: efe3 c9bd 177e aebd 416e 17bc a8f8 48bd
00000020: 5d01 30bb d244 ef3c e0ba 81bd 136a 4b3d
00000030: b2d8 0a3c c07d 063d 0382 093d 14e9 933c
00000040: 7e97 60bd 0cb4 8a3d 0cb9 74bb d8ca 883c
00000050: a2dd 88bd a6a4 d6bd c7bf 203e 03b2 373d
00000060: a564 22bd d634 49bd 6084 00be 5929 bebc
00000070: 75eb c03d d03e 88bd 8230 d6bd 0d86 f4bb
00000080: 8df4 8dbd 0bd6 0b3d 6cc0 393d e416 d13b
00000090: 726d bb3d 574d 02be b5c5 44bc 21db 5a3b
000000a0: fb9f f4bc 1207 8ebd a25f 563b 582d efbd
000000b0: de48 27bc ffbe 29bc 3e4d 9abd b4c7 21be
000000c0: 17bc 05be 986f 14be bc80 2dbe 635f e4bd
000000d0: ddfb 0fbe fe15 8ebe c22d 0dbe 280e 84bd
000000e0: 3fed 47bb 431a 13be 99aa f7bd 9046 483d
000000f0: c719 983d 490d 1bbe ded6 99bd ef0f 6a3c
00000100: c502 8dbd dbc7 d8bc 0e25 e4bd 0c0b e0bd
00000110: 99e0 18be c56b 28be bd0e 4dbd 2b5e 26bd
00000120: 03f8 4dbd fcc9 f2bd 9ada 1fbe f288 85be
00000130: 42d0 77be 5f04 0cbe da02 b7bd 0162 11be
00000140: b570 59bc 29a5 01be 7207 69be fbf0 b8bd
00000150: 754e b5bd 4a62 4bbd 7a67 81be 7d74 9abd
00000160: 4a8c 70be 9e22 0ebe 79b7 30be 495e b9bd
00000170: ed3c a4bd fa44 41ba 455e 31be 00a2 7fbe
00000180: 3717 11be 625c 03be e525 89be 6f86 66be
00000190: 136d 27be de6a 34be 5ace 77bd eb22 94bd
000001a0: 213c b737 8c68 ccbd 7975 42bd 9608 4bbc
000001b0: 8edd d9bd 4106 c0ba 4ab5 f9ba 41bd 1fbe
000001c0: 8102 fe3c ddea 05be 6958 b2bd 977d 09be
000001d0: 3407 143d a8b3 dcbd c85c 2cba 243e 943a
000001e0: d77b 13bd 2c52 9cbd 6b1b e33c 8578 173c
000001f0: 7a4b d33c 54a7 193e 431e 81bd 65c1 e6bd
00000200: 8398 18bd d153 85bd 7092 9bbd c74c bfbd
00000210: 0c79 c13d 7506 10be 82f9 d7bd c565 1fbe
00000220: 77b1 a1bd 55d7 dbbd 6d71 aabc 7b5a d83c
00000230: 0e1e 3ebd 462a 0cbe 53a4 ca3d de88 2e3d
00000240: ddef c0bd 2bcc bfbd ed15 97bd 291d aabc
00000250: 1d2a f2bd 83de 1b3c d09d d0bc f294 16be
00000260: e284 0e3e da36 c8bd df53 d9bc dda0 7cbd
00000270: 3a4a 3b3d d1d2 213d ffd8 84bd c5a1 5ebd
00000280: 4d0e a53c b7ae 6abb d2a9 20bd b8df 6e3d
00000290: e306 11bc f0f9 06bd bdd7 66bd a54f 013d
000002a0: c6fc e93c 9317 8b3d 24bd 8abd fe9f 64bc
000002b0: 80ba 88bd 6182 f73d b388 b2bd 31ea 00be
000002c0: f9df 6abc 0683 94bd 57fa fbbd 85d7 ffbd
000002d0: 0e88 a5bd cbb3 e93c 2819 c3bd 3bbc 50bd
000002e0: f1ad 0cbe f0b4 0fbe e31b af3d c6de 723d
000002f0: 7130 a03c 350a 693d de9a 49bb 71d2 20bc
00000300: 7a11 87bd 1724 ecbd 0a8f 27be 5944 f7bd
00000310: 118f 31be 66f3 98bc 5538 dd3b 73e0 f5bd
00000320: 211b 4d3d 8f9b f13c 99fe 7f3b f676 a43d
00000330: 0adc 333d f431 7bbc 69ab b83d c484 a83d
00000340: c40d 15be 080c e73c 9695 473c 43e5 6abc
00000350: 21da 4fbd eab9 043d ad90 0c3d 855b d7bd
00000360: 0265 85bd c867 053b 14c5 06be 1480 873c
00000370: f5c4 f0bd 5cdf 483d f630 60bd 8be0 f63b
00000380: c638 07be 677f 5e3d ab4b b7bd 785a a0bc
00000390: 780e 2d3c 4916 38bd 5944 20bd bec4 e4bd
000003a0: 63e5 0fbd 86a9 e9ba 44ce 983c 2145 243d
000003b0: 77f1 b5bc 5da7 d5bd 2f66 b2bd f46b b0bb
000003c0: b888 5d3d 2a62 72be 1000 c93c 7e6f 3abd
000003d0: 2fc0 a13d 4e49 c9bc 6a41 1cbe de39 44bd
000003e0: b245 2bbc a7a8 a9bc 2d96 1c3e 2fb7 0c3e
000003f0: 4722 813d 6f12 893d 3c03 2c3d 7bb6 56bc
